models/discriminator_model.pth (torch, 266391 bytes, 5 tensors)

map1.weight f4 [256, 128]
00000000: e3a1 823d 361a cab9 37c4 23bd 5d22 70bc
00000010: 6d9f 8bbc 1492 2e3d 7551 ab3d 45b0 85bd
00000020: 970e c93d a721 833d ca9f d0bc a238 42bd
00000030: 5eb6 d7bc c85d 3c3c a5f6 7cbd d8ed 0e3d
00000040: d698 2d3d e866 7bbd cf44 dc3b 14f5 98bd
00000050: 4d05 98bd 49f1 903d cbb9 5f3d d639 4cbd
00000060: 456e cfbb 8531 30bd 1453 6fbd b4c6 a1bd
00000070: a9f9 233c 2231 63bd b5e4 5bbc b50e 8b3d
00000080: 59e8 3a3d e557 bd3c 6e7d 4cbd 4bdb 893c
00000090: 9b4d 943d 88db 733c 948a 31bd 9e11 333d
000000a0: 44ad bd3d 1af8 3fbc 2b0b 713d 9d43 52bd
000000b0: 80f1 ae3a d16b ae3d e076 5e3d af7f 61bd
000000c0: 8c8e 24bc 4408 823d 94e9 4dbd 8a82 2d3b
000000d0: c3fb 78bd c4f5 8e3d 3860 8e3d fcc8 3d3c
000000e0: 178f b13c 2c9b 6c3d e2e5 df3c 8795 d03d
000000f0: 926e 8fbd 0e3d 95bd 47ee 2e3c f7cf 89bd
00000100: ca74 08bb 8370 a03d 4e5f 253c 6832 7c3d
00000110: 4c0b 39bd 5405 9e3d b467 82bd c983 183c
00000120: eb7e adbc f630 a23d fb73 4f3d e7c5 963c
00000130: f0dd 4c3d 251d 753d 155f 7abd 4810 9bbc
00000140: 587b f33c 9970 34bd 5ad2 d5bb 02ea f5ba
00000150: 8d7e 083d 7314 66bd 0ef0 99bd f37e 323d
00000160: 5fb6 783d 6800 9fbd bd02 e1bc e0ff 89bc
00000170: e9d0 a03d 04ca d53c 2d0f 5fbd 1ecc 6ebd
00000180: 0fce a43c 8fa7 54bd 83f3 9dbd f7f7 09bd
00000190: e44f 37bd 4c7c 693c 3b32 943d f660 66bd
000001a0: ea17 a83b 271a 833d d37f 6f3d 2b32 af3d
000001b0: 8c20 963d f200 603d 7fb8 953d 4fc7 053c
000001c0: 516b 8dbd 95db 9fbd 9fbc 5abd 002f a63c
000001d0: 3c31 0cbc b3b5 d3bc 0412 87bc f559 8b3d
000001e0: 9b8a 63bc 8ade 06bd 77d6 b4bc 05ee 1f3d
000001f0: 0919 b1bb 98ad 78bc acc4 4fbd cc1a 873d
00000200: 61f6 90ba 8e75 7abd 5cea 123d 4666 47bd
00000210: 897c bb3c fc5a 79bd 43d7 38bd 779d 48bd
00000220: caf5 90bd 024e cbbc 7ed6 673d 89bc cfbd
00000230: 7399 8bbd c841 97bb 5d29 5dbc c89e 813d
00000240: af5c 163d 98e9 9c3d c37e 7bbd df85 fcbb
00000250: c769 383d 496d 8dbd 898d 1fbd 02c3 9e3c
00000260: 861f d239 6a61 67bc 9634 74bc 93e0 4abd
00000270: f323 093c 2f2f bdbd 13e6 713d 4134 fabc
00000280: dda8 b93c 8949 85bc 4913 95bc 4c2c dd3c
00000290: 9919 813d 6681 773c d3f9 4ebd 46ae 5e3d
000002a0: 77ed 703d 91f7 533d 2234 273d 7470 4ebd
000002b0: ec5d b4bd b48a a8bd 23d0 acbc 55a8 50bc
000002c0: 5bb6 10bd 37b3 71bc 7718 89bd c256 c7bc
000002d0: 58b6 15bc 1a51 503d ac8f 03bc 26aa e83b
000002e0: 6b84 03bd 8458 193d 06d0 5ebd 447f 2dbc
000002f0: 5566 7a3d 8e02 2f3d 2d4c 1dbd 7400 a93d
00000300: 1781 f43b 93be 9abd 3177 ae3d 58c3 413d
00000310: 1222 8fbc e269 5d3d 95d7 323d bb64 24bc
00000320: 2f50 523d ae2c 6dbd 9dba 0c3d 9044 7d3b
00000330: a306 843d b7fb 8dbd 2c25 23bd e195 1cbc
00000340: 23e8 ac3d 0963 ad3d 5581 4f3d db71 a33d
00000350: 4efb a13d 5565 8fbc 7aef 9fbd 8e60 153c
00000360: fa26 8d3d e7ec 57bd 9e89 de3c 2eee 6bbd
00000370: a6ca 753d 7183 c63c 2a91 19bc 4f30 783c
00000380: 0b29 71bd b337 f83c ac68 2a3c d21b 2bbc
00000390: 7985 133c 7a39 263c 2cfe c9ba 2ad8 40bb
000003a0: 5d34 4ebd 148c 14bd 1ab4 913d 435b 973d
000003b0: 55e3 00bc 4881 b9ba 6856 c53c 0c3f f13c
000003c0: 8b6d f6bc 8963 683c 9827 a03d 6144 503d
000003d0: a59c bdbb d5d8 60bb bb11 7e3c ebc7 a23d
000003e0: c124 ba3a c432 36bd 093a 14bd d36c d6ba
000003f0: 4182 39bd 3628 2f3d 0955 afbd 3fae c2bc
0.06378534 -0.0003854797 -0.039982047 -0.01465663 -0.017043794 0.04261978 0.08365146 -0.06527761
0.09817236 0.06402903 -0.025466818 -0.04741729 -0.026332077 0.011496969 -0.061758656 0.034894794
0.042382084 -0.061377436 0.00672207 -0.0746862 -0.07422886 0.070772715 0.054620545 -0.049859844
-0.006330284 -0.043015976 -0.05842884 -0.07899228 0.010008254 -0.05546678 -0.013421227 0.067899145
0.04563174 0.0231132 -0.049924307 0.0168282 0.072413646 0.014883883 -0.04334505 0.043717973
0.092615634 -0.011716867 0.05884854 -0.051334012 0.0013347119 0.08516658 0.054312587 -0.05505341
-0.010043751 0.06349233 -0.050271586 0.0026475512 -0.060786974 0.0698047 0.06951946 0.011583563
0.021674676 0.05776517 0.027331296 0.1018477 -0.070035115 -0.07287036 0.010676927 -0.06729119
-0.0020821565 0.0783396 0.010093523 0.06157151 -0.04517679 0.0771586 -0.06367436 0.009308764
-0.021178683 0.07919495 0.050647717 0.018404914 0.050016344 0.059842248 -0.061125834 -0.018928662
0.0297219 -0.044052694 -0.00652532 -0.0018761756 0.033323813 -0.056171846 -0.0751649 0.0435781
0.060720798 -0.07763749 -0.027467126 -0.016845644 0.078523465 0.026097305 -0.054457832 -0.05830013
0.020117788 -0.05191761 -0.07712462 -0.033683743 -0.044753924 0.014250826 0.07236143 -0.056244813
0.005129804 0.064014725 0.058471512 0.08554491 0.073304266 0.0546884 0.073105805 0.008165195
-0.069052346 -0.07805554 -0.05340254 0.020286083 -0.00855666 -0.025843477 -0.016488083 0.06804267
-0.013888027 -0.032927074 -0.022074921 0.039045352 -0.0054045958 -0.015178107 -0.05072467 0.06596908
-0.0011059755 -0.061147265 0.035868034 -0.04868152 0.022886531 -0.060877785 -0.045127165 -0.048978295
-0.070781305 -0.02481747 0.05660104 -0.10143382 -0.068163775 -0.004615996 -0.013498631 0.06329113
0.036709484 0.07661742 -0.061400186 -0.0077063884 0.045022752 -0.0690561 -0.038953338 0.019380096
0.00040077808 -0.014122346 -0.014905116 -0.049530577 0.008370387 -0.09237515 0.059057306 -0.030542495
0.022663528 -0.016270416 -0.018197672 0.026998661 0.063037105 0.015106535 -0.05053122 0.05436542
0.058820214 0.05174977 0.040821202 -0.050400212 -0.08806977 -0.082295805 -0.021095341 -0.012735446
-0.035330158 -0.014752201 -0.066941194 -0.024333362 -0.009137712 0.050858594 -0.0080298595 0.0071003614
-0.032108705 0.03743793 -0.054397605 -0.0105894245 0.061132748 0.042727046 -0.038402725 0.082520396
0.007461678 -0.075558804 0.08518828 0.047305435 -0.0174723 0.054056056 0.043662626 -0.010033782
0.051346 -0.057903938 0.034357656 0.0038645603 0.06446578 -0.069327764 -0.03983037 -0.009557218
0.08442714 0.08466155 0.05066045 0.079807006 0.07909261 -0.017504374 -0.078093484 0.009117259
0.068922 -0.052716162 0.02716523 -0.057600193 0.060007714 0.024232598 -0.009372989 0.015148236
-0.058877032 0.030299997 0.010400932 -0.010443645 0.00900399 0.010145539 -0.0015410832 -0.0029425719
-0.050342906 -0.0362664 0.0711443 0.07390454 -0.0078667 -0.0014152909 0.024089053 0.029449008
-0.030081531 0.014183887 0.07820052 0.05084646 -0.0057864957 -0.003430893 0.015507157 0.079482876
0.0014201627 -0.044482008 -0.03618816 -0.0016359336 -0.045290235 0.042762958 -0.08561141 -0.023764728

map1.bias f4 [256]
00000000: 1ff8 de3c dfc8 303d 9abf 663d 665e 5fbd
00000010: 3a10 bfbb 4208 17bd 6e9c d5bc 85af 5bbb
00000020: 330f ccbd 7ea9 973d 64c0 2b3d c79a b43c
00000030: 88a1 bbbd b3fc 97bc 6226 573d ef76 7c3c
00000040: 87c5 aa3d 9115 903d 291e e9bc 6d7c 163d
00000050: 0c43 80bd 59c0 c23c fe11 bcbd ead0 a03d
00000060: 2f1a 8fbd 2dc6 4abd 450f 4dbb 6443 8f3d
00000070: 8ba3 b9bd 4fcc 813b 2205 1fbb 649e 33bd
00000080: 19ed 91bd 98f5 883d e540 47bd ba9e 9e3d
00000090: 2594 fbbc 096d ab3d bac9 b8bd 5d74 62bd
000000a0: 0f54 ac3c 47ab 913d a34e 1abd a0e4 6d3c
000000b0: 7c34 1b3c 2e1f c5bd 02e5 fa3c 899e 80bd
000000c0: 4c60 45bd 4806 0c3d d779 40bd 7768 36bd
000000d0: d661 93bc ee7a d63a 5f15 76ba 2885 133d
000000e0: c47c 64bd f36a c03b e8ae 093d f235 0e3d
000000f0: 077e a2bd c3e4 acbc 4ea6 2bbe 7fa8 163b
00000100: 6af8 b4bd 7010 3a3d 6ff9 8f3d 8ca4 c13d
00000110: 97fa bbbc ee4a 7d3d ec09 a93c 894f b0bc
00000120: 3746 20bd 45a3 2a3c 626f 98bc 2a4a 993c
00000130: dc32 c53b 9ff9 8c3d 88c0 93bd 8bf9 85bd
00000140: 7c3b 993d acee d83d 0e5e 123d b413 993d
00000150: 0717 2bbd e48a bfbd ccc7 ce3d 29a1 a83d
00000160: d441 86bd 6a21 b0bc d88d 433d 5052 ce3d
00000170: 2f10 f9bc d93d ffbc c540 07bd 5b40 a93d
00000180: 3bbf 3ebd 2d4a 993c ce2f 4cbd 42f3 c6ba
00000190: ab10 113d f81b 363d b462 c23d 2bc6 b83d
000001a0: fa49 01bc 8469 873d 6342 083d 8bdf 6b3d
000001b0: b364 a03d 517f 6dbd 65a8 8c3c 384d 913d
000001c0: 520a 9abd 13d9 c2bd bb33 64bd 1e27 5bba
000001d0: 1ef1 e4bb 84a4 143d 9057 a33d bc4d 57bd
000001e0: b271 80bd 912f a13d e492 94bc f39a d0bc
000001f0: 97f9 86bd e9a8 cdbb 9a3a 933c 7bd8 1ebe
00000200: 34a5 bf3c 6f91 613c 8b98 5b3d 8f16 1a3d
00000210: 247f a63d 361d 19bd d1ad b2bc 38d9 3dbd
00000220: 160d 0fbd ca53 d7bd 7063 f4bc ea33 3f3d
00000230: d5cd 7c3c a329 09bd aa00 ae3d e27f e4ba
00000240: d29b 7e3d 56ca a83b 1046 de3a e676 d3bd
00000250: b2dc 523d 0b03 d03c f0c2 4e3d e2d0 b23d
00000260: 74ab 853c 8a4c 783d 6481 aa3b 35dd 4cbd
00000270: 4a91 0d3d a255 a5bd 10b6 8b3d 6445 b4bd
00000280: c415 1ebd f41b 4f3d 8173 8c3b 8c1e c33c
00000290: 5b2a 9dbd 57ba 68bd 0705 acbc d93f 8a3c
000002a0: 0784 99bd 47be 8fbc ac53 00bd 6fbc fbbd
000002b0: aff9 5d3d 2306 74bd 70c6 a23c defd 653d
000002c0: 0002 113d 795a b53c 6f26 b93b d0ed 383d
000002d0: 5ee2 333d 61f4 953b 7b1e 43bc f8a6 8abc
000002e0: 108a a7bd d747 403a 917e d8bc 4147 703d
000002f0: 3ce8 e53c bdca 443c a1d2 cdbd b197 6a3c
00000300: 3402 c6bd 8e48 c03d cfd1 93bd 3c0f 8dbd
00000310: 7da1 9a3c 8161 3e3c 8fc8 0f3d 7a13 c73d
00000320: 3355 98bd ebd1 73bd acbb 21bd e83f 603d
00000330: 1673 22bd bcf0 04bd 558f 7fbd 1c9b b43b
00000340: a03c c73c 4917 893d ae33 a13c 3762 993d
00000350: a5ca 853b d886 8739 3da3 ae3d 432c 3e3d
00000360: 422b 19bd 97b2 223d 66b1 a63d 319c 85bd
00000370: 8525 933d 878c 7a3d 1d4a 72bd ba72 003d
00000380: 9d1e a03d a04d 5c3d d1a1 52bd 73da 7abb
00000390: ac3e 25ba 6232 03bb 3ce7 8c3d 4768 6bbc
000003a0: f34c a43d f29f 12bd c2a6 06bd 4454 55bd
000003b0: d6d4 6c3d 5e6d 58bd 96eb 013d 28b7 54bd
000003c0: 4aeb 073b 385f 843d 38ae 41bd 6ae0 83bd
000003d0: 8398 243d 6f1c 58bd d39f 0d3d a7fd 4f3d
000003e0: 27bc f93c 19f3 80bd 7810 0dbd 2f56 a23d
000003f0: dce4 30bc 8faf 1bbd 4364 99bc 06d3 493d
0.027217923 0.043160316 0.05633507 -0.054533385 -0.005830792 -0.03687311 -0.026075568 -0.0033521366
-0.099638365 0.07405375 0.041931525 0.02204646 -0.09161669 -0.018553114 0.05252684 0.015409215
0.083384566 0.070353635 -0.028456764 0.036739755 -0.06262788 0.02377336 -0.09183119 0.07852347
-0.06987416 -0.0495054 -0.003128962 0.069952756 -0.090643965 0.003961123 -0.0024264534 -0.043852225
-0.07125301 0.06687468 -0.048645873 0.077451184 -0.03071029 0.08370406 -0.09022851 -0.055286754
0.021036176 0.07112747 -0.03767265 0.0145198405 0.0094729625 -0.09625088 0.030626778 -0.06280238
-0.04818754 0.034185678 -0.046991196 -0.04453322 -0.017990988 0.001636354 -0.000938734 0.03601566
-0.05578305 0.0058721243 0.03361407 0.034719415 -0.07934194 -0.021105176 -0.16762659 0.0022988615
-0.08836444 0.045425832 0.070299976 0.09455213 -0.022946639 0.061839037 0.020634614 -0.0215223
-0.039129462 0.010414903 -0.018607799 0.018712122 0.006018026 0.06883549 -0.07214457 -0.06541737
0.07482049 0.10592398 0.03573423 0.07474461 -0.041770007 -0.09352663 0.10096702 0.08233864
-0.065555245 -0.021500308 0.047742695 0.100742936 -0.030403225 -0.031157421 -0.033020753 0.08264228
-0.04656909 0.018712128 -0.049850278 -0.0015178698 0.035416286 0.044460267 0.094914824 0.090221725
-0.007891173 0.066119224 0.033266436 0.057586234 0.07831707 -0.057982747 0.01717014 0.070948064
-0.075215 -0.0951406 -0.055713397 -0.0008360016 -0.006986751 0.036289707 0.079756856 -0.052564368
-0.06271686 0.07870401 -0.01813645 -0.02546451 -0.06590574 -0.006276239 0.01797228 -0.15512268
0.023394205 0.013767584 0.053612273 0.03761917 0.08129719 -0.037381373 -0.021811398 -0.046349734
-0.03492459 -0.10514028 -0.029832572 0.04668037 0.015429934 -0.033486973 0.084962204 -0.0017433132
0.06216032 0.0051510734 0.0016958136 -0.103254125 0.051480003 0.025392076 0.050478876 0.087312475
0.016317107 0.06061987 0.005203413 -0.050015647 0.034562387 -0.08072974 0.06821835 -0.08802298
-0.038594976 0.050563768 0.00428623 0.023818277 -0.07674094 -0.056818333 -0.020998491 0.016876148
-0.07495885 -0.017546786 -0.031329796 -0.122918 0.054193195 -0.059576165 0.019870013 0.05615031
0.035402298 0.022137867 0.0056503336 0.04514867 0.043917052 0.0045762514 -0.011909123 -0.01692532
-0.0818063 0.0007334924 -0.026427539 0.058661703 0.02806484 0.012011227 -0.1004994 0.014318393
-0.09668389 0.09388839 -0.07217752 -0.06887671 0.018875832 0.011619926 0.035103377 0.09720512
-0.074381255 -0.059526365 -0.03948562 0.054748446 -0.039660536 -0.032456145 -0.06239255 0.0055116545
0.0243209 0.066938944 0.019677963 0.07489436 0.004082995 0.00025849673 0.08527229 0.04642893
-0.03739477 0.039721098 0.08139305 -0.06523932 0.07184891 0.061169174 -0.05915271 0.03135941
0.07818339 0.053784966 -0.05142385 -0.0038277179 -0.00063035893 -0.0020019044 0.06880042 -0.014368123
0.080224894 -0.035797067 -0.032873876 -0.052082315 0.057820164 -0.052838676 0.031718813 -0.051932484
0.0020739608 0.06463474 -0.04728529 -0.06439288 0.04018451 -0.05276149 0.03457625 0.05077901
0.030485226 -0.06296367 -0.034439534 0.079265945 -0.010796752 -0.038009223 -0.018724566 0.049273513

map2.weight f4 [128, 256]
00000000: 7ab5 4a3d d341 0bbc d0d0 4cbd f252 f53c
00000010: fb58 883d 94da 6cbd 5c1d 87bb e618 26bd
00000020: a856 30bd ca7a 68bd 25f5 8e3b 7050 7ebc
00000030: 9e8a 623d 2d83 0bbd 5ba7 1e3d 0883 113d
00000040: 36ec abbb d68b 88b9 1dd8 d73c 05e0 2ebd
00000050: 3c2f e1bc 3821 0cbd 6de8 37bd f3de f03c
00000060: 4e0e 25bc a348 a13d 90ab 173d c222 3cbd
00000070: 4586 1f3d e423 8b3c a09f 243d eebb 46ba
00000080: 58ec 9a3c a6f8 4d3d e46c d03b c2b1 bbbc
00000090: ad85 2bbd 9548 783d 7463 6bbc 52b7 4dbc
000000a0: 282d 143d ac73 2bbc 650a 883c be07 8e3c
000000b0: d671 a5bc 6ba9 36bd c0b0 603d 9c38 22bd
000000c0: 5cc9 49bd 6d3a 483c 85cc 103d 603f a9bc
000000d0: 808f d3bc b0eb 14bd d9ea 26bd a5d7 773d
000000e0: 9859 633d a43f 71bd 0e8d b83c 3582 e8bb
000000f0: 5515 673d 0610 57bd 8edf 51bc cbc4 a2bc
00000100: 3025 8d3d 4794 5a3d b25b e1bc 1a8f f7bc
00000110: e1c6 163c 6533 bc3a d7e8 f6bc 0f15 2abb
00000120: b0fe e33c 5ddb 61bc a479 163d 4238 adbc
00000130: 74a2 14bd e6e3 2a3d 7219 d5bc 5ed6 12bd
00000140: 5f4d 3abc f351 3abd 2130 673d 5e72 ddbc
00000150: beb0 5c3b acc1 163d 6649 1dbd c323 013d
00000160: 1341 0d3d ba0f 3a3d 27bf 3f3d 565d 8f3c
00000170: cf59 49bd dc0d 9e3c 8802 ec3a 8ae4 9ebc
00000180: d857 92bc 5440 39bc a93c 6bbc 68d6 2dbd
00000190: 4645 a03c 557d 0b3d db50 353d 1aa6 cd3c
000001a0: 671a 593c 044e 5ebc bfd2 debc 09ba d03c
000001b0: 3428 a13c 763e 4bbd 13b5 3dbd bc36 c5bc
000001c0: c886 1abd 1fbf 893b cedf 213d 1edc 89bc
000001d0: 389b 583d b2f3 553d ab52 3fbd fcf6 5abd
000001e0: 6f22 82bd 0ea5 573d 5ddf e9bc 8c9f 4e3c
000001f0: 7f51 af3c 1c2f 883c 9ade 16bd 745e 93bd
00000200: 6a78 d8bc 863e 933c 747a 48bd b918 0dbd
00000210: 6875 feba dd31 2e3d 256a 17bd 741b 4f3c
00000220: 4bef b0bc 0786 cfbc 7b21 8e3d 3602 a9bc
00000230: bb88 8f3d c82e f4bc 8dd6 1c3c 9635 25bd
00000240: 2f2a d4bc d8c2 7b3d 7ae8 26bc 474a 37bd
00000250: 1c38 12bd ac4f 5cbc 8bb8 1cbd f076 b43b
00000260: 3e18 51bb a64a 0c3d cc90 753c bbe3 32bd
00000270: a09d 59bc 167f 113d 1501 e0bc e5f5 13bd
00000280: 088e c53c 286a b0bc 3d5b 213d a965 113d
00000290: 875c 25bd 50f0 0dbc d56b 1fbd 8f3b 7e3d
000002a0: 6f07 663d 1a3d 23bd 734b 5bbd e4fb 33bd
000002b0: 93d4 963c ccbd 743d c0f2 eb3a ae79 843c
000002c0: 8959 843d 1b27 753d 8601 4d3d c033 1dbc
000002d0: 65df 003d 1687 933d 6398 273d b64b 2b3d
000002e0: 6cdd 12bd d7af 363d 7422 3b3d 8285 dbbb
000002f0: 79c2 b43c bc7d 9f3c 1263 883d df4d 393d
00000300: 0c29 593d ca61 90b9 42a0 c2bc 1fd5 85bc
00000310: 692c 743d 1320 14bc 3fde b03b 0504 2fbc
00000320: c206 99bc fc5b 9ebc f748 c1bc 1280 5fbd
00000330: d1c5 553d c261 2cbc 8106 093c 5750 653d
00000340: e5ac 13bd bdaf f1bc d4b3 683d fe88 b23b
00000350: 8946 91bb 9cd6 8e3d b019 493c a812 a4bc
00000360: 26ff 08bb 16a5 2d3d 1469 3a3d 6508 e7bc
00000370: f399 29bd fdee d9bc 4f3d 8b3d bcea c6bb
00000380: 6a62 f23c bf3b 3f3d 2c53 ea3c a4eb d7bc
00000390: 2274 f03c 5857 c93c bde9 27bd 1e86 1ebd
000003a0: 29a4 09bd b6d3 5c3d 07f0 b43c bd61 12bd
000003b0: 2fee 123d d79a 36bd 3959 0fbc 0b14 cebc
000003c0: 7611 833d 92f5 0bbd 4a42 2b3d b109 9d3d
000003d0: f9dc 80bd 484d 753d 1234 563d 066b f23c
000003e0: 2ee7 213d 77ba 55bc 7e82 773d cea7 d33c
000003f0: db1e 21bd ba63 6f3c f0ad 3fbd 0b09 963c
0.049489476 -0.00849958 -0.050003827 0.029946778 0.06657597 -0.05782564 -0.004123373 -0.04055109
-0.04305139 -0.056757726 0.0043627196 -0.0155221075 0.055307977 -0.034060646 0.03873382 0.03552535
-0.0052466644 -0.00026044127 0.026348168 -0.04269411 -0.027488343 -0.034211367 -0.044899393 0.029403185
-0.010074211 0.078751825 0.03702885 -0.045931585 0.03894641 0.016984887 0.040191293 -0.00075811043
0.018911526 0.050285958 0.006360637 -0.02291191 -0.04187553 0.060616095 -0.014366973 -0.012555914
0.036175877 -0.01046459 0.016606519 0.017337676 -0.020195883 -0.044595163 0.054856062 -0.03960477
-0.049264297 0.012220961 0.035351295 -0.020660102 -0.025825262 -0.03635758 -0.040751312 0.06050839
0.055505365 -0.058898583 0.022528198 -0.0070956 0.05641683 -0.052505516 -0.012809647 -0.019869229
0.068918586 0.053364065 -0.027509544 -0.030219603 0.00920269 0.0014358578 -0.030140324 -0.0025952493
0.027831405 -0.01378521 0.0367371 -0.02114499 -0.03628774 0.041721247 -0.02601311 -0.035848968
-0.011370986 -0.04548831 0.056442384 -0.027032074 0.0033674682 0.036805794 -0.038400076 0.031528246
0.034485888 0.045425154 0.046813156 0.01750056 -0.049157914 0.019293718 0.0018006125 -0.019396085
-0.017864153 -0.011306841 -0.014357724 -0.0424408 0.019564282 0.034055073 0.044266563 0.025103617
0.013250924 -0.013568405 -0.027200101 0.025479333 0.01967249 -0.049620114 -0.046315264 -0.024073951
-0.037726194 0.0042036916 0.039520077 -0.016828593 0.052882403 0.05223436 -0.046709698 -0.0534582
-0.06354224 0.052647643 -0.02854889 0.012611281 0.021401165 0.016624026 -0.036833383 -0.0719575
-0.026424605 0.01797415 -0.048944905 -0.034447405 -0.0019413652 0.042528022 -0.03696646 0.012640823
-0.021598479 -0.025332464 0.0693998 -0.020630937 0.07008501 -0.029807463 0.009572637 -0.040334307
-0.025899021 0.061465114 -0.010187263 -0.04474857 -0.03569804 -0.01344673 -0.03826193 0.0055073425
-0.0031905319 0.034250878 0.014988136 -0.043674212 -0.01328221 0.03552159 -0.027344266 -0.036123175
0.024115577 -0.021534994 0.039393652 0.03549734 -0.040371444 -0.008663252 -0.038921196 0.06206852
0.056159433 -0.039853193 -0.05353875 -0.043941393 0.01841191 0.059751317 0.0018001422 0.016171303
0.0646239 0.059851747 0.05005028 -0.009594858 0.031463046 0.072035 0.04091681 0.04182025
-0.035855696 0.044601288 0.045687154 -0.006699265 0.022065388 0.019469135 0.06659521 0.04524028
0.05301766 -0.0002753868 -0.023758058 -0.016336976 0.059612665 -0.00904085 0.0053975875 -0.010682111
-0.01867998 -0.019330971 -0.023594363 -0.054565497 0.052190606 -0.010521354 0.008363367 0.05598482
-0.036053557 -0.029502744 0.056812122 0.0054484596 -0.0044334573 0.06974527 0.012274191 -0.020028427
-0.0020904033 0.042393766 0.045510367 -0.028202245 -0.041406583 -0.026603216 0.06798803 -0.006070463
0.029587943 0.046687838 0.028604113 -0.02635748 0.029352251 0.024577782 -0.040994395 -0.038702123
-0.03360382 0.05391284 0.02208711 -0.03573774 0.03587168 -0.04458126 -0.0087493 -0.025156042
0.06399815 -0.03416974 0.041811265 0.07667864 -0.06292147 0.059888154 0.052295752 0.029592048
0.03952711 -0.013044945 0.06042718 0.025836851 -0.039336067 0.014611179 -0.04679674 0.018314859

map2.bias f4 [128]
00000000: b99d f03c ebeb 34bd a33c a83c 74a8 4abd
00000010: 2083 45b9 a993 c93b adc5 57bd b3c8 bebc
00000020: c7b4 b5bc 387e 0b3d 7d34 703a 1218 36bd
00000030: 52b8 25bc 2b5e febc 8900 043d e447 7e3d
00000040: 1024 123d 8ed8 f73c e2c0 723b 9a71 773c
00000050: 1df4 893d c502 cf3c 093d e7bb fd7c 173d
00000060: 5c2c 0dbd 61c2 10bb f263 38bd c255 893b
00000070: 7f0c 1a3d 0448 f13c 8d5c 21bb b350 6ebd
00000080: b330 4f3c 1d7f 52bd cbf1 2fbd ae1f 3bbd
00000090: dd76 ef3b f1bf 39bd 8c90 41bd 60fb 3abd
000000a0: ed89 a93c e004 90bb 41ad 383d cffa 62bd
000000b0: 2e90 483d b711 1cbd 6623 3abd 26e9 49bd
000000c0: 6472 10bd 05b4 febc 39e2 f4bb aeec 9abc
000000d0: d42a acbc 7be8 85bc 7893 343d 9316 293d
000000e0: 6d04 d83c f0bf 023c c539 8a3d 3548 3dbd
000000f0: 18ef 463d b604 84bd a8d1 54bd 2256 54bc
00000100: f14a 7f3c eec8 8c3d e404 12ba 77f8 77bd
00000110: e229 013d 18ca 05bc 39df 3a3d 0ebf ab3b
00000120: fe0d 55bd 4369 22bd e56b 50bd f0c4 2f3d
00000130: dfa7 fc3c 8f8b 523c e921 b1bc 8e73 88bd
00000140: df7a 84bc 953c 07bd 4d6c 27bd 8201 09bd
00000150: c3d8 fc3b 5c79 213c 66d4 933b 4b14 f63b
00000160: 3619 7a3c 9f21 833d d8fc 4fbd c35a de3c
00000170: f86a a6bb 6406 1c3d f4f3 9b3a 8b6d be3a
00000180: ea3e 063d 1e14 2cbc 6b7c 46bd 5a1f c13c
00000190: 1d09 013c 91ec 32bc 41d1 debc c801 09bc
000001a0: 84bf ff3c 7817 fcbb 5721 b23b 447e cb3c
000001b0: 8929 9a3c 6732 82bc 984e 98bc f09f eabc
000001c0: 9c87 723d d354 c2bc 574c 7cbd 480f 663d
000001d0: 821a 833c 62c4 bb3c 6cc0 103d 331b 003d
000001e0: 62ca 763c 0155 be3c 0b3c 06bd 1e11 ac3c
000001f0: e24d 13bd 23b1 91bc ad47 18bd ff59 23bd
0.029372083 -0.0441703 0.020536726 -0.049477056 -0.00018836232 0.0061516357 -0.052678753 -0.02328906
-0.022180928 0.03405592 0.0009163095 -0.04445655 -0.010114746 -0.031050762 0.032227073 0.06208028
0.035678923 0.030254629 0.0037041237 0.015102768 0.06736014 0.025269875 -0.0070568365 0.036984432
-0.034466133 -0.0022088515 -0.04501719 0.0041911313 0.037609573 0.029453285 -0.0024621815 -0.05818243
0.012645888 -0.051390756 -0.0429552 -0.04568451 0.007307871 -0.045349065 -0.04725699 -0.045649886
0.020695651 -0.0043951124 0.045087103 -0.05541497 0.048965625 -0.03810283 -0.045443915 -0.049294613
-0.03526534 -0.0310917 -0.007473257 -0.018911686 -0.021016516 -0.016346207 0.04408595 0.041281294
0.026369298 0.007980332 0.067493 -0.04621144 0.04856786 -0.06446211 -0.051957756 -0.012959989
0.015581832 0.06874262 -0.0005570187 -0.06053969 0.031534083 -0.008165859 0.045623038 0.0052412814
-0.052015297 -0.039651167 -0.050884146 0.042912424 0.030841766 0.012850656 -0.021622615 -0.06662665
-0.01617187 -0.03301676 -0.040874768 -0.033448704 0.0077162697 0.0098555945 0.004511404 0.0075097433
0.0152648 0.06402897 -0.05077824 0.027142888 -0.0050786696 0.038092032 0.0011898265 0.0014528496
0.032774843 -0.010502843 -0.048458498 0.02357452 0.007875708 -0.01092066 -0.02719939 -0.008362241
0.031219251 -0.0076932274 0.0054361033 0.024840482 0.018818634 -0.015893174 -0.018592164 -0.028640717
0.05921136 -0.023722088 -0.06159624 0.056166917 0.01600385 0.022920791 0.035339758 0.03127594
0.0150629 0.023233892 -0.032772105 0.021004256 -0.035962947 -0.01778466 -0.03717773 -0.03988075

map3.weight f4 [1, 128]
00000000: 2c6d 53be 32ff 01be ca84 72bd 28c1 d73d
00000010: 307e e23d 2e79 873c bfcb e83b 53d2 27bd
00000020: d718 0a3e 7577 923d 1370 0b3d 6ed9 1fbe
00000030: b602 f7bd b58b ff3c 053e e3bd 7098 66be
00000040: f8af 8e3d 7fbf a03c 4876 7bbe 2a3f 7bbe
00000050: 6223 28be a6b8 493e 17da 6c3d 5980 bc3d
00000060: 6af1 053e 27bf 5fbe 8092 86bd 6e11 53be
00000070: c4b3 b7bd 17ee 6fbe 37dc 173e 2b0b a8bb
00000080: a94b f1bd 3b8f 653d 0c65 5f3e e94f 983e
00000090: a70d 44ba 439c c6bd d7ae 5a3c d14a 07be
000000a0: 4e0a 873c 9391 1fbe a606 533e 86c6 4cbd
000000b0: ea82 26bd 998e 633e 8ed9 d6bc 6623 763d
000000c0: 15c8 643d 670a 3e3d a502 233e 1a8c 873d
000000d0: a5b5 4ebd d2e2 c1bd 8258 57bc 679b b13d
000000e0: 840c 283d bc29 0d3e 740e b03d afde 09be
000000f0: 8e57 d3bd 276d b83e 5270 b03b 3511 37be
00000100: 761a 3a3e 03d0 823d 6967 18bd 85c5 363e
00000110: acd4 cb3d 1445 e9bb 565b f83d ee14 8b3c
00000120: e415 573d 1ab8 94bd bd71 bd3c 972c 4b3e
00000130: 95af a53e 409e 893e 4a6d a13d 3718 7e3b
00000140: c6db 2bbe 2864 febd adf6 b8bd 2ed9 283d
00000150: 30c5 0cbd 6d52 8a3d dd9a b8bd 8f5e 083e
00000160: 1c67 77bd ecfe 88bd 855f be3d 0904 8fbe
00000170: b9fa bf39 8115 2f3e be02 e9bd 1d67 29be
00000180: 7c7f 453e 00ac 903d afef eabd 619e 203e
00000190: a740 eebd c919 3a3d 4596 b6bd 9a6d a8bd
000001a0: 9e9d 11be 8d8a d6bc 7bae 253c de6c 13be
000001b0: 4f3e f6bd 9c55 0abe cee8 b8bd 7329 26be
000001c0: b8c6 a23d a05b 2a3e cdbf ce3c e114 01be
000001d0: b3d4 7ebe 2145 583e 690d 1d3e 575a 76bc
000001e0: 2847 86bd ac0a e13d f180 32bd c398 bbbd
000001f0: 3472 7f3d 1a2b 073d 44c6 663d eaed 7a3d
-0.20647115 -0.12695006 -0.05920867 0.105348885 0.110592246 0.016537275 0.0071043666 -0.040972065
0.13486038 0.07151691 0.03404243 -0.15610287 -0.12061064 0.031194547 -0.11095814 -0.22519088
0.06967157 0.019622562 -0.2455684 -0.24535814 -0.16419747 0.19699344 0.057825174 0.09204168
0.13080373 -0.21850263 -0.065709114 -0.20612118 -0.089698344 -0.23430668 0.14830099 -0.0051282845
-0.11782009 0.0560448 0.2181589 0.29748467 -0.0007478841 -0.09697773 0.013347349 -0.13212134
0.016484406 -0.15582876 0.20608005 -0.049994014 -0.040652193 0.22222365 -0.026226785 0.060092352
0.055854876 0.04639664 0.15918978 0.06618519 -0.0504662 -0.09467091 -0.0131436605 0.08672219
0.04102756 0.13785452 0.08596507 -0.13463853 -0.10319434 0.36020777 0.0053844834 -0.17877658
0.18174157 0.06387331 -0.037207995 0.17848785 0.09952673 -0.0071188305 0.12126796 0.016977753
0.05251111 -0.07261677 0.023125524 0.19841228 0.3236052 0.26878548 0.07882173 0.0038771757
-0.16783056 -0.12421447 -0.09031425 0.041222744 -0.03436774 0.06754003 -0.09013913 0.13317321
-0.060401067 -0.066892475 0.09295563 -0.27932766 0.00036617162 0.17098047 -0.11377476 -0.16543241
0.19286913 0.070640564 -0.11471497 0.15685417 -0.11633425 0.045434747 -0.089153804 -0.0822403
-0.14220282 -0.026189113 0.0101124 -0.14396998 -0.12023603 -0.1350922 -0.09028779 -0.16226749
0.07948059 0.16636515 0.025237942 -0.12605621 -0.24885826 0.2112012 0.15337147 -0.015036187
-0.06556541 0.109883636 -0.04358 -0.09159996 0.062364772 0.03300009 0.056341425 0.06126205
