models/generator_model.pth (torch, 126927 bytes, 8 tensors)

map1.weight f4 [128, 128]
0	0x3db63db6	0.08898489
1	0xbd9a9378	-0.07547659
2	0x3d782945	0.060586233
3	0xbbbeefc7	-0.0058269235
4	0x3d1dc58e	0.03851848
5	0x3d6e05ae	0.058110885
6	0xbda5f9b8	-0.08104271
7	0xbd92f683	-0.07175925
8	0x3d2d9c79	0.042385552
9	0x3c8f375d	0.017482454
10	0x3c52a38f	0.012856378
11	0x3d864586	0.06556229
12	0x3d3b2fb8	0.045699805
13	0x3d90b7aa	0.07066281
14	0xbd9994e6	-0.07499103
15	0x3d1fbb7c	0.03899716
16	0x3d583e2a	0.05279366
17	0x3d064eb5	0.032789905
18	0xbdaa6711	-0.083204396
19	0xbd4a821e	-0.049440496
20	0x3ce6e35b	0.028184583
21	0xbcb5fe13	-0.022215879
22	0x3d9cd643	0.07658055
23	0xbd79fe87	-0.06103375
24	0x3d559978	0.052148312
25	0xbd49406e	-0.04913371
26	0xbd4fea78	-0.050760716
27	0xbb954c0c	-0.0045561846
28	0x3d65e7c2	0.056129225
29	0x3d829b7f	0.06377315
30	0xbce1a114	-0.027542628
31	0x3daeb82f	0.08531224
32	0xbda0fc8d	-0.0786067
33	0x3d33983e	0.04384636
34	0x3d8413d6	0.06449096
35	0x3d6f1b79	0.05837581
36	0x3d86f345	0.06589369
37	0xbd3332c2	-0.04374958
38	0x3cdff8f6	0.027340394
39	0xbbf4bce2	-0.0074688056
40	0x3db7c038	0.0897221
41	0x3c8c35a1	0.017115416
42	0xbd57a37a	-0.052646138
43	0x3d4c380d	0.04985814
44	0xbd58c1e4	-0.052919284
45	0xbd166230	-0.036714733
46	0x3d74b01d	0.059738267
47	0xbcb2e498	-0.021837518
48	0x3b83bad4	0.0040200744
49	0x3daa6871	0.08320702
50	0x3bdd3bd1	0.0067515154
51	0xbc8b8569	-0.017031388
52	0x3ca92e32	0.02065191
53	0x3d9be44d	0.07611904
54	0xb8571628	-5.128063e-05
55	0xbd09bf9f	-0.03363001
56	0xbcfd8524	-0.030947275
57	0x3bd81282	0.006594003
58	0x3d194a31	0.03742427
59	0xbd2445db	-0.040105682
60	0xbd8182c1	-0.063237675
61	0x3ce83e06	0.028349888
62	0xbd1370fc	-0.035996422
63	0x3ca399fc	0.019970886
64	0xbcd063b8	-0.025438175
65	0x3d9d9ac4	0.07695535
66	0x3d9c382f	0.07627904
67	0x3c818ed9	0.015815185
68	0x3c82608f	0.015915183
69	0xbd8f3561	-0.06992603
70	0xbda6491e	-0.08119415
71	0xbcd7480e	-0.026279476
72	0x3d05fc64	0.0327114
73	0xbc43e1dd	-0.0119557055
74	0xbceb4f34	-0.02872429
75	0x3d74f2dd	0.059801925
76	0x3c6f70b3	0.014614272
77	0x3d598894	0.053108767
78	0x3b3a4e6e	0.0028428095
79	0x3cb4b1bd	0.022057408
80	0x3d0dbe8a	0.03460554
81	0xbd630d62	-0.055432685
82	0xbd8a4ddb	-0.06753131
83	0x3d7dd9f2	0.061975427
84	0x3cb4e9f5	0.022084216
85	0xbd95818e	-0.07300101
86	0xbd9f99e5	-0.07793025
87	0xbb5cd547	-0.003369646
88	0xbd83dee4	-0.064389974
89	0xbc889f6e	-0.016677584
90	0xb9891a6d	-0.00026150365
91	0xbd885a32	-0.066578284
92	0xbd5eae67	-0.05436554
93	0xbd8dc89a	-0.06923027
94	0x3d8874bf	0.066628926
95	0x3c43a34e	0.01194079
96	0xbcbe3f6d	-0.023223603
97	0xbdafd7ca	-0.0858608
98	0x3da6ae91	0.08138765
99	0xbd44af3f	-0.04801869
100	0xbd9997e3	-0.07499673
101	0x3c39b932	0.011335658
102	0x3d85b61e	0.06528877
103	0x3d0c9090	0.034317553
104	0xbbf1cba9	-0.0073790145
105	0xbd51b89a	-0.05120144
106	0xbc8072a9	-0.015679674
107	0x3d3b0fd1	0.04566938
108	0xbcdb3c83	-0.026762253
109	0x3d32473c	0.043524966
110	0x3d33a044	0.043854013
111	0x3dad4cb2	0.08461894
112	0x3d4207a3	0.047370564
113	0x3d02efc8	0.031966954
114	0xbd95637f	-0.07294368
115	0xbb58275e	-0.003298245
116	0x3da25764	0.07926825
117	0xbd7d37e9	-0.0618209
118	0xbd0533bb	-0.032520037
119	0x3c1aedd6	0.009456119
120	0x3d31e3f6	0.04343029
121	0xbd8000cf	-0.06250154
122	0xbcd642cb	-0.026154896
123	0xbaaac36e	-0.0013028213
124	0xbd13419b	-0.035951238
125	0xbc383156	-0.011242231
126	0xbda5925a	-0.08084555
127	0x3d07a48b	0.033115905
128	0xbb44f784	-0.0030054757
129	0xb9aa1337	-0.00032439243
130	0x3c16f25b	0.0092130555
131	0x3d283d85	0.041074295
132	0xbd9433e8	-0.07236463
133	0x3d6ae729	0.057349358
134	0xbda3d3ab	-0.07999357
135	0xb9d12b92	-0.0003989605
136	0xbd645508	-0.055745155
137	0xbcb0ae9d	-0.021567637
138	0x3d9b3973	0.07579317
139	0x3b6432c6	0.0034820302
140	0x3dab0d9b	0.083522044
141	0xbd8e328f	-0.06943237
142	0xbdad3c96	-0.084588215
143	0xbc8c12ee	-0.01709887
144	0xbd60b8f4	-0.054863885
145	0xbbbbb3e9	-0.005728234
146	0x3bba11c1	0.005678386
147	0xbd83d87b	-0.06437775
148	0x3d29f752	0.04149563
149	0x3cbb21ed	0.022843326
150	0xbdaa395b	-0.08311721
151	0xba7f8233	-0.0009746879
152	0xbbc9bba6	-0.0061564026
153	0x3c113cdf	0.00886461
154	0x3c1505ad	0.0090955915
155	0xbd73ba46	-0.059503816
156	0xbc39330c	-0.011303674
157	0x3d0dd733	0.034629058
158	0x3d80bc8a	0.06285961
159	0xbd95fe32	-0.073238745
160	0x3d7cd3b8	0.06172535
161	0x3c96ce46	0.018408906
162	0x3ce61a60	0.028088748
163	0xbd25441e	-0.040348165
164	0x3d7fed48	0.06248215
165	0x3d902283	0.070378326
166	0x3d8895c9	0.06669194
167	0xbd4cc67e	-0.049993984
168	0x3d817a8b	0.06322201
169	0x3d3d7006	0.046249412
170	0x3d2b4e09	0.041822467
171	0xbd2ddbfd	-0.042446125
172	0x3dac34fd	0.08408544
173	0xbd9b2caa	-0.07576878
174	0x3d26dd73	0.040738534
175	0xbda7e794	-0.08198467
176	0xb9fdafd8	-0.00048386934
177	0x3db0848c	0.08619031
178	0x3d32205d	0.043487895
179	0xbd148d26	-0.036267422
180	0xbda55a2a	-0.08073838
181	0xbdb1079d	-0.0864403
182	0xbd55d277	-0.052202668
183	0x3a629c18	0.00086444756
184	0x3d7bcbcd	0.061473656
185	0xbd376f00	-0.044783592
186	0xbd8c53b1	-0.068519
187	0x3da4bdf3	0.080440424
188	0xbd8c2337	-0.06842654
189	0x3c18423d	0.009293136
190	0xbda82b93	-0.08211436
191	0x3d855802	0.06510927
192	0x3d96b89f	0.073594324
193	0x3cb45163	0.022011464
194	0xbaf5fecf	-0.0018767955
195	0x3da1e51d	0.07905028
196	0x3caabb18	0.020841166
197	0x3d8dc2bc	0.06921908
198	0xbd8b29a3	-0.06795051
199	0x3d3fe08f	0.046845015
200	0x3c89c12d	0.016815746
201	0xbd288a2a	-0.04114739
202	0x3d846329	0.06464226
203	0xbd2f0e71	-0.04273838
204	0xbda6111f	-0.08108734
205	0xbdaf45f7	-0.085582666
206	0xbc08e84a	-0.008356163
207	0xbd55c2dd	-0.05218779
208	0x3d7c6d0e	0.06162744
209	0x3bb31d48	0.005466137
210	0xbda8ece7	-0.082483105
211	0xbdb1f85e	-0.086899504
212	0x3c8759a0	0.016522229
213	0xbcf23ee7	-0.02957101
214	0xbb1b561b	-0.0023702446
215	0xbd92f850	-0.07176268
216	0x3db40ad8	0.08791131
217	0x3d19af82	0.037520893
218	0xbd881f31	-0.06646574
219	0xbd5c4b3f	-0.053782698
220	0x3da6b52c	0.081400245
221	0x3d45d417	0.048297968
222	0x3d5aaf8d	0.053390075
223	0xbbaaf59c	-0.005217267
224	0x3d5283f6	0.05139538
225	0xbd80887b	-0.062760316
226	0x3d06b3ff	0.0328865
227	0x3d5bfdc7	0.053708818
228	0xbca56343	-0.020188933
229	0xbd2e5780	-0.042563915
230	0x3d8f103d	0.06985519
231	0xbda06df6	-0.078334734
232	0xbc13ac82	-0.009013297
233	0xbcc8deaa	-0.024520237
234	0x3d503f3d	0.05084156
235	0x3d934ae6	0.0719202
236	0x3c4b1f46	0.012397593
237	0xbd5db363	-0.054126155
238	0x3d9cb88b	0.07652386
239	0xbd82d233	-0.063877486
240	0x3d9d3275	0.076756395
241	0xbc03bc8f	-0.008040561
242	0xbca9a773	-0.020709729
243	0x3d10ad42	0.03532148
244	0x3cf2fccc	0.029661559
245	0xbcf61feb	-0.030044517
246	0xbd2d1980	-0.042260647
247	0x3d4d053d	0.050053824
248	0xbce441ed	-0.027863467
249	0xbd91cc0b	-0.07118996
250	0x3cee64fc	0.029100887
251	0xbdae20b8	-0.08502334
252	0x3d1c8a00	0.038217545
253	0xbd1de122	-0.03854478
254	0xbd4bfa4f	-0.04979926
255	0x3d9bf751	0.07615531

map1.bias f4 [128]
0	0xbd454deb	-0.04817001
1	0x3cf0dbc5	0.02940167
2	0xbd4f0394	-0.05054052
3	0xbd7c9ead	-0.061674763
4	0x3a4763da	0.00076061266
5	0xbba129b1	-0.0049183
6	0xbcca2a18	-0.024678275
7	0xbd1f4608	-0.038885146
8	0x3d917e92	0.071042195
9	0xbd8cd20e	-0.06876002
10	0x3d8d97a7	0.06913691
11	0xbdad7a91	-0.08470643
12	0xbcda96ed	-0.026683295
13	0xbd80e2a0	-0.06293225
14	0x3d848988	0.064715445
15	0x3cd668ed	0.02617308
16	0xbd52a98d	-0.051431227
17	0x3da9134c	0.08255634
18	0x3d870604	0.06592944
19	0x3cc9ac0e	0.024618175
20	0xbcef7f66	-0.029235553
21	0xbcb50d6a	-0.022101123
22	0xbca92eb0	-0.020652145
23	0xbd1c3731	-0.038138572
24	0x3d64c56e	0.055852346
25	0x3d026f8d	0.031844664
26	0x3dc2d42d	0.095131256
27	0x3d10c0ca	0.035340108
28	0xbd0d171c	-0.034445867
29	0xbc9abc03	-0.01888848
30	0x3b207ff6	0.0024490333
31	0xbcff75da	-0.031184126
32	0x3cfd36bd	0.03090989
33	0xbdc76ffa	-0.09738155
34	0xbd1f97a9	-0.038962994
35	0x3d89ad20	0.06722474
36	0x3dbd71fe	0.09250258
37	0x3c1ab540	0.009442627
38	0x3cb64b0f	0.022252588
39	0x3d909cd3	0.07061162
40	0x3d71144a	0.05885724
41	0xbd195833	-0.03743763
42	0x3d209d25	0.039212365
43	0xbca196f8	-0.019725308
44	0xbb5307f4	-0.0032200785
45	0x3d951b7f	0.07280635
46	0x3c5a14ac	0.013310593
47	0x3d2aafd7	0.0416716
48	0xbcd4a142	-0.0259558
49	0x3d9a7b42	0.07543041
50	0x3ccb4a12	0.024815593
51	0xbd873f31	-0.0660385
52	0x3d1500cb	0.03637771
53	0xbdae8979	-0.085223146
54	0x3c7f7335	0.015591432
55	0xbd779a96	-0.06045016
56	0x3d94995b	0.07255813
57	0x3daa0b9e	0.08302997
58	0x3d0ed4ca	0.0348709
59	0x3b7dba96	0.003871595
60	0x3c868cb9	0.016424524
61	0xbd72ca40	-0.059274912
62	0x3cf12c94	0.029440202
63	0xbc2a1b56	-0.010382494
64	0x3cb5dbce	0.022199538
65	0xbdae5557	-0.08512371
66	0x3da548ce	0.08070527
67	0x3c9a35d2	0.018824492
68	0xbc3b8094	-0.01144423
69	0x3db87044	0.09005788
70	0xbd408dc1	-0.047010187
71	0xbd925027	-0.07144194
72	0xbdcc7ccb	-0.0998474
73	0x3da1bed4	0.07897726
74	0x3d8e0033	0.06933632
75	0xbcfede92	-0.03111199
76	0xbd65eeb7	-0.05613586
77	0xbd6c098d	-0.057626296
78	0xbda773b6	-0.08176367
79	0xbd825ff6	-0.06365959
80	0xbd0592fd	-0.032610882
81	0x3cd4ad18	0.025961444
82	0x3d5c1b91	0.053737227
83	0x3d610408	0.054935485
84	0x3da1d4a9	0.0790189
85	0xbd596511	-0.0530749
86	0xbd818baa	-0.06325467
87	0x3d0fbee3	0.035094153
88	0x3d9136cf	0.07090532
89	0x3c737313	0.014858979
90	0x3cf8524e	0.030312683
91	0xbd098e29	-0.03358284
92	0xbdc499a3	-0.095996164
93	0x39b5f9e2	0.00034709187
94	0xbd9092e7	-0.070592694
95	0x3c93fd0d	0.018065
96	0x3dae9462	0.085243955
97	0x3d726be9	0.059184942
98	0x3d75b411	0.059986178
99	0xbd569b40	-0.05239415
100	0x3d8d50a2	0.06900145
101	0xbd962573	-0.073313616
102	0xbbaa58ba	-0.0051985653
103	0x3d8f3c12	0.069938794
104	0xbd1662d0	-0.03671533
105	0x3d83c755	0.06434504
106	0x3d9a3254	0.075291306
107	0x3ad70eae	0.0016407573
108	0xbb923210	-0.0044615343
109	0xbd8c6157	-0.068545036
110	0xbd97712b	-0.07394632
111	0xbd8ee70f	-0.06977665
112	0x3d061a65	0.032740016
113	0xbcaa507a	-0.020790327
114	0xbd65876f	-0.056037363
115	0x3d612697	0.054968443
116	0xbaf5d556	-0.0018755596
117	0xbd867fe3	-0.06567361
118	0x3da8870e	0.08228885
119	0x3cedb65a	0.029017616
120	0xbcc2859b	-0.023745349
121	0xbd4ba488	-0.049717456
122	0x3cafd2d9	0.021462845
123	0xbc5e2ab7	-0.013559989
124	0x3da18f11	0.07888616
125	0x3dbdbbc7	0.09264331
126	0xbd8db795	-0.06919781
127	0xbd189e0c	-0.0372601

map2.weight f4 [64, 128]
0	0xbd659796	-0.056052767
1	0xbd8e72e1	-0.06955505
2	0x3d5d93ba	0.05409596
3	0x3d1d333f	0.03837895
4	0x3c5eb0a6	0.013591921
5	0x3dab25a2	0.08356787
6	0x3c4fd8a2	0.012685927
7	0x3d531ce8	0.05154124
8	0xbd6b41d6	-0.057435833
9	0x3d43c6a3	0.047796857
10	0xbd690e98	-0.056898683
11	0xbbeab099	-0.0071621654
12	0xbcbd6de9	-0.023123698
13	0xbd685c55	-0.05672868
14	0xbd094ec7	-0.033522394
15	0x3d985540	0.07438135
16	0x3d9200cf	0.071290605
17	0x3d78ec7c	0.060772404
18	0x3b272a1d	0.002550728
19	0x3b5cc23e	0.0033685113
20	0x3da3a391	0.07990182
21	0x3c9a61ba	0.018845428
22	0x3d96d152	0.073641434
23	0xbdc5ee6f	-0.09664618
24	0x3be71169	0.007051636
25	0x3d86ae77	0.06576245
26	0x3d93be18	0.07213992
27	0x3d8b4ab1	0.06801356
28	0xbd9b1e95	-0.075741924
29	0xbbfec0b9	-0.007774439
30	0xbda146cf	-0.07874834
31	0xbd3d124e	-0.046160035
32	0xbda46cd1	-0.080285676
33	0x3cef41ce	0.029206183
34	0x3d4334dd	0.047657836
35	0x3cec5957	0.028851194
36	0x3d9fedbd	0.07809017
37	0xbd884b71	-0.06655014
38	0x3d36b168	0.04460278
39	0xbdb11547	-0.086466365
40	0xbb8df679	-0.0043323603
41	0xbd0848ce	-0.033272557
42	0x3bd408fd	0.006470798
43	0xbccb395d	-0.024807626
44	0x3ceb602d	0.028732384
45	0xbd8ff2b7	-0.07028716
46	0xbdba1975	-0.09086887
47	0xbd9d5f9a	-0.0768425
48	0xb86d346d	-5.655403e-05
49	0xbbc811a5	-0.006105619
50	0xbdb3fbfb	-0.08788296
51	0x3d3b8f74	0.045791104
52	0xbd536ae7	-0.051615622
53	0xbca4c4c4	-0.020113356
54	0x3daddb12	0.0848905
55	0xbd7ee4e5	-0.06223001
56	0x3d853c26	0.06505613
57	0xbcf13878	-0.029445872
58	0xbd2b488c	-0.041817233
59	0x3d43a7df	0.047767516
60	0xbda052f4	-0.07828322
61	0xbc93e663	-0.018054193
62	0x3d2e0c8c	0.042492434
63	0xbd8d8fd1	-0.069121964
64	0xbd98f0cd	-0.07467804
65	0x3b37372c	0.002795647
66	0xbb7a2b62	-0.003817283
67	0x3cf3c15f	0.029755292
68	0x3d265460	0.04060781
69	0x3d5010c9	0.050797258
70	0x3d6c68eb	0.057717245
71	0x3d1bdbb2	0.038051315
72	0xbd443c5b	-0.047909122
73	0xbd9c091b	-0.07618924
74	0x3d0a6e81	0.03379679
75	0xbc999fbd	-0.018752927
76	0xbba41cb8	-0.0050083064
77	0x3db4d3e4	0.088294774
78	0x3d964639	0.07337613
79	0x3ce302d0	0.027711302
80	0xbd4f5e96	-0.050627314
81	0xbd27d0d7	-0.04097065
82	0x3d76a8e4	0.06021966
83	0xbd324529	-0.043522988
84	0xbd47b49c	-0.048756227
85	0xbda905ea	-0.08253081
86	0x3c1df9c1	0.0096420655
87	0x3d7361d7	0.05941948
88	0xbd579d7f	-0.052640434
89	0x3d6e5a66	0.05819168
90	0x3dac4478	0.08411497
91	0x3d94378d	0.07237158
92	0x3d344b50	0.044017136
93	0x3cef44ca	0.029207606
94	0xbcb47d52	-0.022032414
95	0x3cb53b32	0.022122953
96	0xbd7c69a5	-0.061624188
97	0x3d18f589	0.037343536
98	0xbd02da80	-0.03194666
99	0xbda804f8	-0.08204073
100	0xbd635a7f	-0.055506226
101	0xbd03af32	-0.0321495
102	0x3ce58e13	0.028021848
103	0x3c3d02ee	0.011536343
104	0xbd71da43	-0.05904604
105	0xbc894dc4	-0.016760714
106	0x3d21778f	0.03942066
107	0xbc7412ac	-0.01489703
108	0x3ab6468d	0.0013906524
109	0xbd88a498	-0.06672019
110	0xbda10d75	-0.07863895
111	0x3c07b430	0.008282706
112	0x3d483554	0.048878983
113	0x3c699dec	0.014258843
114	0xbd3c1721	-0.045920495
115	0xbd82c8c0	-0.06385946
116	0x3c0fbd54	0.008773167
117	0xbc9fca55	-0.01950566
118	0x3d2ab921	0.04168046
119	0x3cd11077	0.025520546
120	0xbd3abdd5	-0.045591194
121	0x3da20318	0.07910746
122	0xbd347707	-0.044058826
123	0x3d7534c5	0.059864778
124	0xbd44e7f3	-0.048072767
125	0xbd585e06	-0.052824043
126	0xbd86070e	-0.06544314
127	0x3cdc8623	0.02691943
128	0x3bbd1f40	0.0057715476
129	0x3c25b2b6	0.010113409
130	0x3d8192ef	0.063268535
131	0xbc570923	-0.013124737
132	0x3cb224c2	0.021746043
133	0x3db70600	0.08936691
134	0xbd4d5d99	-0.05013809
135	0x3c820569	0.01587172
136	0xbb00beab	-0.0019644897
137	0xbcc4f1d5	-0.024041096
138	0x3d665c95	0.056240637
139	0x3cc66d35	0.024221996
140	0x3d306285	0.043062706
141	0xbd25e3b1	-0.040500347
142	0xbcde5d65	-0.027144143
143	0xbd1d0e10	-0.03834349
144	0x3d5c7381	0.05382109
145	0xbd658739	-0.05603716
146	0xbc36120e	-0.011112703
147	0x3d4e7d44	0.05041243
148	0x3d3b9d40	0.045804262
149	0xbbe937bb	-0.0071172393
150	0x3d501916	0.050805174
151	0xbd356ead	-0.044295
152	0x3d35be7b	0.04437111
153	0xbd54f5e2	-0.051992305
154	0x3d9b9229	0.07596237
155	0x3c94aa42	0.018147592
156	0x3a47a0f2	0.000761523
157	0xbd9e84e6	-0.07740192
158	0xbcbb4122	-0.022858206
159	0xbc84f112	-0.016228233
160	0xbcdfdb16	-0.027326148
161	0xbdbe3635	-0.09287683
162	0x3d1f41ce	0.038881116
163	0xbcb46aa8	-0.022023514
164	0x3c21385b	0.009840096
165	0xbc0ae428	-0.008477248
166	0x3acc56ac	0.0015589795
167	0xbd99e1e1	-0.07513786
168	0xbd275223	-0.040849816
169	0xbdcb67ea	-0.099319294
170	0xbd0db784	-0.034598842
171	0xbdabb6e5	-0.08384494
172	0x3c70c504	0.01469541
173	0x3da60917	0.081072025
174	0xbd9d97d0	-0.076949716
175	0x3d9e10f8	0.0771808
176	0xbdb32adf	-0.087484114
177	0xbd1f2f16	-0.038863264
178	0xbdae7c86	-0.08519845
179	0xbd2bcfbb	-0.041946154
180	0xbd26dfdb	-0.04074083
181	0xbd86ef7d	-0.065886475
182	0xbd822f5a	-0.06356688
183	0xbc674a40	-0.014116824
184	0xbce0f2c6	-0.027459513
185	0xbd6a7520	-0.057240605
186	0x3c947643	0.018122798
187	0x3d941f9f	0.07232594
188	0xbcb54342	-0.022126798
189	0x3da3a5cd	0.07990608
190	0x3d0e9a4b	0.034815114
191	0x3d2c40c4	0.042053953
192	0xbc38e6a5	-0.011285459
193	0xbd82be21	-0.063839205
194	0xbdb055ff	-0.086101525
195	0xbcff246b	-0.031145295
196	0xbd92a6f5	-0.07160751
197	0xbd8d4d38	-0.06899494
198	0xbc533b9f	-0.012892633
199	0xbdaeb7a1	-0.08531118
200	0xbd5de333	-0.054171752
201	0xbd70013c	-0.058594927
202	0xbd2575a9	-0.040395413
203	0x3ce0f8e0	0.027462423
204	0x3c8c65ea	0.01713844
205	0x3d93f888	0.07225138
206	0x3bfa008f	0.007629461
207	0xbdb35cef	-0.0875796
208	0x3cf357de	0.029704984
209	0xbc467503	-0.012112859
210	0xbda1caa1	-0.078999765
211	0x3c89550d	0.016764188
212	0xbd47cb51	-0.048777882
213	0xbd6c92f6	-0.05775734
214	0xbd05a974	-0.032632306
215	0xbd9265ec	-0.07148346
216	0x3d142d69	0.03617612
217	0x3d433b5a	0.047664024
218	0x3d93ec42	0.07222797
219	0xbce4cee9	-0.027930694
220	0xbd209c77	-0.039211717
221	0x3d43e1dc	0.04782282
222	0xbd85a1d1	-0.06525005
223	0x3d212485	0.03934147
224	0xbd97e8cc	-0.07417449
225	0x3d789c48	0.060695916
226	0x3db5e103	0.08880808
227	0xbdab98fd	-0.083787896
228	0x3c4368fe	0.011926888
229	0xbdb2fe62	-0.08739926
230	0x3cbbf94a	0.022946019
231	0xbdaca76b	-0.0843037
232	0xbd7de501	-0.061985973
233	0x3dc28070	0.09497154
234	0xbc09e411	-0.008416192
235	0xbd6f0a68	-0.058359534
236	0xbda3a339	-0.079901166
237	0xbd808cb6	-0.062768385
238	0xbc071f63	-0.008247229
239	0x3cac131c	0.021005206
240	0xbd34ad16	-0.04411038
241	0xbc993e7c	-0.018706553
242	0xbce5062b	-0.027957043
243	0x3cbbe690	0.02293709
244	0x3d1922bf	0.037386652
245	0xbcafdeed	-0.021468604
246	0xbb53d5eb	-0.003232355
247	0x3d884f8e	0.06655799
248	0xbc4821e5	-0.012215112
249	0x3db63bbe	0.08898114
250	0x3da5ba17	0.080921344
251	0xbd3a6d2d	-0.045514274
252	0x3d6146a7	0.05499902
253	0xbd85f472	-0.06540765
254	0xbda78d07	-0.08181196
255	0x3cfd96b8	0.030955657

map2.bias f4 [64]
0	0xbd4ad639	-0.049520705
1	0x3ca7e9ba	0.020497192
2	0xbce303a6	-0.0277117
3	0xbcd0b444	-0.025476582
4	0xbc88a582	-0.016680483
5	0xbc831690	-0.01600197
6	0x3da36dad	0.07979903
7	0x3b82b99e	0.0039894124
8	0x3d24394c	0.040093705
9	0xbd10b4a0	-0.035328507
10	0xbd7f6247	-0.062349584
11	0x3a9f65e7	0.0012161107
12	0x3caabe6c	0.020842753
13	0xbd63ab61	-0.05558336
14	0xbd801423	-0.06253841
15	0xbd8f1438	-0.06986278
16	0xbd8e0616	-0.069347546
17	0x3cbca5ba	0.023028243
18	0xbdab76f4	-0.08372298
19	0xbd51be30	-0.051206768
20	0x3d07e32b	0.03317563
21	0x3d80f717	0.06297129
22	0x3d4c0b85	0.049815673
23	0x3d3af917	0.045647707
24	0x3da3f688	0.080060065
25	0x3dc4581d	0.09587119
26	0xbbeded3a	-0.0072609456
27	0xbd1528a8	-0.036415726
28	0xbd1b67b3	-0.037940692
29	0xbd12d6d9	-0.035849426
30	0x3d2dfd13	0.04247768
31	0x3cc97ccd	0.024595642
32	0x3cb301ac	0.021851383
33	0x3d878c40	0.066185474
34	0xbda85f4b	-0.08221301
35	0xbba915ef	-0.0051600854
36	0x3d812da0	0.063075304
37	0xbd2677bf	-0.040641543
38	0xbdadff70	-0.084959865
39	0x3de938cc	0.11387786
40	0xbd0551ac	-0.03254859
41	0xbc4fa157	-0.012672744
42	0x3d5483b3	0.05188341
43	0x3d56bdd0	0.052427113
44	0xbdb14e2d	-0.08657489
45	0xbcba28c8	-0.022724524
46	0x3d84d842	0.064865604
47	0xbd5a5626	-0.053304814
48	0xbcd189b9	-0.025578367
49	0xbdb6a26d	-0.08917699
50	0xbd77182f	-0.060325798
51	0xbd89790b	-0.0671254
52	0xbd524b47	-0.05134132
53	0x3d3ce3ab	0.04611556
54	0x3dd07b37	0.10179751
55	0x3b0add60	0.0021189079
56	0xbdb5295c	-0.08845779
57	0x3b239258	0.0024959054
58	0x3ccc9dd1	0.024977596
59	0x3d769222	0.060197957
60	0x3d47309b	0.04863034
61	0xbd258083	-0.04040576
62	0x3d716a60	0.058939338
63	0xbd632441	-0.055454496

map3.weight f4 [32, 64]
0	0x3cf9da30	0.030499548
1	0xbda22328	-0.07916862
2	0xbca8a4b4	-0.02058635
3	0xbe0d83bd	-0.13819785
4	0xbdfe054b	-0.12403353
5	0x3cff4c12	0.031164203
6	0x3d0f04ff	0.034916874
7	0xbd8d594d	-0.069017984
8	0xbdb7bd0b	-0.08971604
9	0x3d85268c	0.06501493
10	0xbd39f5af	-0.045400318
11	0x3d7bcf3e	0.06147694
12	0x3d685862	0.056724913
13	0xbda5c8d8	-0.080949485
14	0xbd1c62c0	-0.038180113
15	0xbdca97bf	-0.098922245
16	0x3d9c1320	0.07620835
17	0x3daaf6f6	0.08347885
18	0xbdc18e2a	-0.09450944
19	0x3d0c3237	0.034227576
20	0x3d9ebba3	0.077506326
21	0xbddd86f3	-0.10816755
22	0xbe0dbe86	-0.1384221
23	0x3daab8af	0.08336007
24	0x3dbe02f6	0.092779085
25	0xbca9a354	-0.020707764
26	0x3dffa2b5	0.12482206
27	0xbd0d4b20	-0.034495473
28	0xbdc1fcac	-0.094720215
29	0x3cbf5622	0.023356501
30	0xbd2b3f69	-0.04180852
31	0x3df43f99	0.11926193
32	0x3cf3382b	0.029689869
33	0xbc69d5ce	-0.014272166
34	0x3ccf37cb	0.025295159
35	0x3cd32b2e	0.025777426
36	0x3c15d747	0.009145564
37	0x3cebfb61	0.02880639
38	0xbd9b68b5	-0.07588331
39	0x3d55b410	0.052173674
40	0xbdaf1565	-0.085490026
41	0x3dd9e363	0.10639074
42	0xbda5c2c3	-0.080937885
43	0x3d183593	0.037160467
44	0x3d16ef17	0.036849108
45	0x3d2d7694	0.042349413
46	0xbe1c3e4c	-0.1525814
47	0x3da72c65	0.081627645
48	0xbdb0d5d5	-0.08634535
49	0xbe328d2f	-0.1743667
50	0xbd3632b5	-0.04448195
51	0xbd9e5d65	-0.07732657
52	0x3c93fe3b	0.018065562
53	0xbc039767	-0.008031703
54	0x3dd4d925	0.103929795
55	0x3da4f347	0.08054214
56	0xbde61718	-0.112348735
57	0xbd1374c6	-0.036000036
58	0x3d747b52	0.05968792
59	0xbd8b6dd8	-0.068080604
60	0x3e22a7f4	0.15884382
61	0x3cfa0b2e	0.030522909
62	0x3def06ca	0.11671217
63	0x3dc03362	0.093848005
64	0xbd433b41	-0.04766393
65	0xbc96f34e	-0.018426564
66	0x3d8c2784	0.068434745
67	0x3d47842b	0.04871003
68	0x3c963a66	0.018338393
69	0x3d061cbd	0.03274225
70	0x3db522da	0.08844538
71	0x3d62f50a	0.05540947
72	0xbd29910b	-0.04139809
73	0x3d0e890b	0.034798663
74	0xbde035cd	-0.10947762
75	0x3d673f59	0.056456897
76	0xbd21b81d	-0.039482225
77	0xbd433822	-0.047660954
78	0xbadfde41	-0.0017079787
79	0xbe0b4e45	-0.13604076
80	0x3cb6a2c6	0.022294413
81	0x3dd97656	0.10618274
82	0xbde8fa0c	-0.11375818
83	0x3e108d70	0.14116454
84	0x3d9c3433	0.07627144
85	0x3da01622	0.078167215
86	0xbcf43d0e	-0.02981427
87	0x3c113962	0.008863779
88	0xbd8b90a7	-0.068146996
89	0x3cb6f237	0.022332294
90	0xbd65fba9	-0.056148205
91	0x3d16bced	0.036801267
92	0xbd2c94fd	-0.042134274
93	0xbb9d3637	-0.0047977227
94	0xbd2befc9	-0.041976724
95	0x3cf65355	0.030069033
96	0xbd68aa8e	-0.05680328
97	0xbda97904	-0.08275035
98	0x3ce1cf62	0.027564708
99	0xbd102a59	-0.035196636
100	0x3d898062	0.0671394
101	0x3c71acef	0.014750703
102	0xbd941bc6	-0.0723186
103	0x3e42d2a2	0.19025663
104	0x3d3a34d8	0.045460552
105	0xbde945da	-0.11390276
106	0x3d1d91d2	0.038469143
107	0xbca637ed	-0.02029034
108	0xbcf06c10	-0.029348403
109	0xbd32459c	-0.043523416
110	0x3b945f67	0.0045279744
111	0xbd65ec73	-0.0561337
112	0x3e07dc2f	0.13267587
113	0xbccba235	-0.02485762
114	0x3e06941a	0.13142434
115	0x3d8bfeaf	0.068356864
116	0xbd8878b6	-0.06663649
117	0x3d353d66	0.044248007
118	0x3d4c2433	0.04983921
119	0x3e2fcf20	0.17168856
120	0xbe3e8d06	-0.18608484
121	0xbd6742d9	-0.056460235
122	0x3d82a150	0.06378424
123	0x3cc04027	0.02346809
124	0x3d26c490	0.0407148
125	0xbcbafc75	-0.022825459
126	0x3e36685d	0.17813249
127	0x3d867a84	0.06566337
128	0xbd2d5c6d	-0.042324472
129	0x3d9ad277	0.07559674
130	0xbd874321	-0.06604601
131	0x3b9dc0ce	0.004814244
132	0x3d96c9ff	0.073627464
133	0x3d5849ed	0.052804876
134	0x3daa13f6	0.083045885
135	0xbc80ad4c	-0.015707634
136	0x3d3f75de	0.046743266
137	0x3dc8748b	0.09787854
138	0x3ca94997	0.020664973
139	0xbd02e477	-0.031956162
140	0xbd648f92	-0.05580098
141	0x3d0655d4	0.032796696
142	0xbdf838df	-0.12120222
143	0x3cbb4b4a	0.022863049
144	0xbdc12624	-0.09431103
145	0x3d60c147	0.054871824
146	0xbd49fa80	-0.04931116
147	0x3da15f8c	0.07879552
148	0x3dbc068c	0.09180936
149	0xbda0b864	-0.0784767
150	0x3d8f4873	0.069962405
151	0xbdf74848	-0.120743334
152	0xbd31a049	-0.04336575
153	0x3d5dce97	0.054152098
154	0x3df3ecf0	0.119104266
155	0x3dc3e529	0.09565193
156	0x3c287f51	0.010284261
157	0xbc5a7d13	-0.013335484
158	0x3cfe76c7	0.031062497
159	0x3db1d041	0.086822994
160	0xbe04b098	-0.1295799
161	0xbdb47168	-0.08810693
162	0xbda78d26	-0.08181219
163	0x3cc865a5	0.02446253
164	0xbd177d7a	-0.0369849
165	0x3caf8451	0.021425398
166	0x3c4cade7	0.012492633
167	0x3e169c36	0.14708027
168	0x3ddf673e	0.10908364
169	0x3c82f05a	0.01598375
170	0xbd90b889	-0.07066447
171	0x3d1d7127	0.03843799
172	0x3cb30511	0.021853002
173	0xbd37a82a	-0.044838108
174	0x3d53a915	0.05167492
175	0x3d252a4d	0.040323544
176	0x3cfa71cf	0.030571846
177	0x3d15cb2a	0.036570705
178	0xbd652a3a	-0.055948474
179	0x3d9b6a76	0.07588665
180	0xbda20c9d	-0.07912562
181	0x3ac2cdc1	0.0014862345
182	0x3caa07dc	0.0207557
183	0xbdafcf62	-0.08584477
184	0xbdced4ea	-0.10099204
185	0x3bb10f1f	0.005403414
186	0xbdd25c39	-0.10271496
187	0xbcec00a5	-0.028808901
188	0x3d10d777	0.035361733
189	0x3df30e5a	0.11867972
190	0x3dbc5c3e	0.09197281
191	0xbbab19de	-0.0052215895
192	0x3dbd0b0e	0.09230624
193	0xbdde5d5f	-0.10857653
194	0x3dd56ca0	0.10421109
195	0xbdd6934b	-0.10477313
196	0x3cda80dd	0.026672775
197	0x3d88493a	0.06654592
198	0x3dc15603	0.094402336
199	0x3dbed375	0.09317676
200	0x3dfbab01	0.12288476
201	0xbd850313	-0.06494727
202	0xbd533630	-0.05156535
203	0xbd937d58	-0.07201642
204	0x3e0b44c1	0.13600446
205	0x3b5b6338	0.0033475887
206	0x3d8b3d93	0.06798854
207	0xbdf966ce	-0.121778116
208	0xbd487fa5	-0.048949856
209	0xbdce4c13	-0.10073104
210	0xbbea0095	-0.0071411827
211	0x3be36f65	0.0069407695
212	0x3bafa6f8	0.0053604804
213	0xbd591289	-0.052996192
214	0x3d1c8983	0.03821708
215	0xbb3df56b	-0.0028985392
216	0xbdbe929b	-0.093053065
217	0xbc7bc5b2	-0.015366958
218	0xbd3bedde	-0.045881145
219	0x3dba7401	0.09104157
220	0x3cce89d5	0.025212208
221	0xbcd200a6	-0.025635075
222	0x3c8440c1	0.016144158
223	0xbd939a71	-0.07207192
224	0xbd34c31e	-0.04413139
225	0x3d8ba854	0.068192154
226	0x3e0327ea	0.12808195
227	0x3c7db5aa	0.015485207
228	0x3d370210	0.0446797
229	0x3c426f6a	0.0118673835
230	0x3d11dbb5	0.03560992
231	0x3d209575	0.039205033
232	0xbdc9d736	-0.09855501
233	0x3d33f417	0.043933954
234	0x3dd806f9	0.10548205
235	0xbe07be5f	-0.13256215
236	0x3cb435f9	0.021998392
237	0xbe1d1c97	-0.15342937
238	0x3cef1692	0.029185567
239	0x3c882dd5	0.016623417
240	0x3e1c2a9f	0.15250634
241	0x3d2c2735	0.04202958
242	0xbd96fcf3	-0.07372465
243	0xbda868b4	-0.082230955
244	0x3da5452d	0.08069835
245	0xbd6e375e	-0.05815827
246	0x3de83b61	0.11339451
247	0xbc226449	-0.009911605
248	0xbcbc612d	-0.022995556
249	0x3d73e686	0.059546016
250	0xbd02ce50	-0.031935036
251	0xbd8386c1	-0.06422187
252	0x3c0a835f	0.008454173
253	0x3d86b160	0.065768
254	0x3dee7a79	0.116444536
255	0xbd417bde	-0.04723727

map3.bias f4 [32]
0	0xbd3e2c28	-0.04642883
1	0x3d643892	0.055718012
2	0xbd52b7f2	-0.051444955
3	0xbda862ea	-0.08221991
4	0xba12ea1d	-0.00056043436
5	0xbd3d405b	-0.046203952
6	0xbd9a7c25	-0.0754321
7	0xbd1b0d4d	-0.03785448
8	0x3de80752	0.11329521
9	0xbd47c310	-0.04877001
10	0x3da34968	0.079729855
11	0x3c2d6068	0.010582067
12	0xbd721141	-0.059098486
13	0x3d9c37ad	0.07627807
14	0x3e0681c5	0.1313544
15	0xbda215d5	-0.079143204
16	0xbac9911f	-0.0015378332
17	0xbd23e21b	-0.040010553
18	0x3df5b401	0.11997224
19	0x3d93328a	0.07187374
20	0xbcb1044e	-0.021608498
21	0xbc21b101	-0.009868861
22	0x3d3df35a	0.046374656
23	0x3cebe099	0.02879362
24	0xbd0255ec	-0.031820223
25	0xbde15b3a	-0.11003728
26	0x3d99056c	0.07471737
27	0xbda69aaa	-0.081349686
28	0x3dcea231	0.10089529
29	0xbcb68c45	-0.022283683
30	0xbde574be	-0.112039074
31	0x3dc9a552	0.098459855

map4.weight f4 [128, 32]
0	0x3df66b5e	0.120321974
1	0x3dc0dd10	0.09417164
2	0x3e286773	0.16445713
3	0x3d064ab3	0.032786082
4	0xbde1dbe1	-0.11028267
5	0x3dced8be	0.10099934
6	0xbaf96b98	-0.0019029258
7	0xbe321fd6	-0.17394957
8	0x3d91be33	0.07116356
9	0xbd06d00e	-0.03291326
10	0xbdf70786	-0.12061982
11	0x3d328022	0.04357923
12	0xbe004b61	-0.12528755
13	0x3deb50dc	0.11490032
14	0x3e10c504	0.14137655
15	0xbdb97646	-0.09055762
16	0x3c65f983	0.014036539
17	0xbe07e161	-0.13269569
18	0xbd2018bb	-0.039086085
19	0xbdf254ba	-0.118325666
20	0xbd89ed08	-0.06734663
21	0xbdc1a412	-0.09455122
22	0xbd91ed9d	-0.07125399
23	0x3d9a9d2e	0.07549511
24	0xbbc74a29	-0.0060818386
25	0xbd731391	-0.05934483
26	0xbdf4fead	-0.11962638
27	0x3d8b7d79	0.068110414
28	0x3e392bd3	0.18083124
29	0xbd48bd3a	-0.049008586
30	0x3e338c0c	0.17533892
31	0x3e0015d4	0.12508327
32	0x3c14bad9	0.009077751
33	0xbde914d6	-0.11380927
34	0x3d872cd5	0.06600348
35	0x3d65f9b7	0.05614635
36	0x3e68a491	0.22719027
37	0x3e3a2d3e	0.18181321
38	0x3e0ac9c1	0.13553526
39	0xbd840dae	-0.06447922
40	0xbda1de73	-0.07903757
41	0x3d360218	0.04443559
42	0xbd83777f	-0.064192764
43	0x3dd91e7a	0.10601516
44	0x3dcb9029	0.09939606
45	0x3dcc9bea	0.09990676
46	0xbc0448ad	-0.008073968
47	0xbe0ee152	-0.1395314
48	0x3d1f0545	0.038823385
49	0xbd78ce3d	-0.06074356
50	0x3bd4eb16	0.006497751
51	0x3e0eb50a	0.13936248
52	0xbd66db97	-0.05636176
53	0x3ddaf2f8	0.10690874
54	0xbdb2fcb9	-0.08739609
55	0xbd35a605	-0.04434778
56	0x3db1d4f7	0.08683198
57	0xbd841db5	-0.06450979
58	0xbdc31daf	-0.09527146
59	0x3de6dde6	0.112727925
60	0x3d805b99	0.06267471
61	0x3c689c30	0.014197394
62	0xbe10d820	-0.14144945
63	0x3de4ec7d	0.11177919
64	0xbdb02055	-0.08599917
65	0xbd3a863c	-0.045538172
66	0x3cad3ef5	0.021148184
67	0x3de76ba7	0.1129983
68	0xbdcf1bb6	-0.10112707
69	0x3e10b7ef	0.14132665
70	0xbd881ce6	-0.06646137
71	0x3e400fe0	0.18756056
72	0xbe0b8966	-0.13626632
73	0xbe4b99bc	-0.19882864
74	0xbdcfee7d	-0.1015291
75	0xbbd95470	-0.00663238
76	0xbddf68b9	-0.10908646
77	0xbd23befc	-0.03997706
78	0x3dd49194	0.10379329
79	0xbda2263d	-0.079174496
80	0xbddf03f5	-0.108894266
81	0xbd419d62	-0.047269233
82	0xbdac6c84	-0.08419135
83	0x3df48e96	0.119412586
84	0xbe08f15e	-0.13373324
85	0xbda9fb08	-0.082998335
86	0x3d54fb7b	0.051997643
87	0x3e194300	0.14966965
88	0x3e03773e	0.12838456
89	0xbd7b5dec	-0.061368868
90	0xbdd8b3e3	-0.10581186
91	0x3e3593f2	0.17732218
92	0x3b32756b	0.002723063
93	0x3d420238	0.047365397
94	0x3d4b426f	0.049623903
95	0x3e002aff	0.12516402
96	0xbe7d68d6	-0.24747023
97	0xbd89ddf3	-0.067317866
98	0x3d178531	0.036992256
99	0x3cfbaee0	0.030723035
100	0x3dab465d	0.0836303
101	0xbd8ff619	-0.07029361
102	0x3d6617cf	0.05617505
103	0x3d34150d	0.043965388
104	0xbdaa7073	-0.08322229
105	0x3dde4fdc	0.10855076
106	0x3e34b76b	0.17648093
107	0x3c82e5a0	0.015978634
108	0xbcc1ed2b	-0.02367266
109	0x3aa5f714	0.0012662136
110	0x3d8fced6	0.07021873
111	0x3bbd73de	0.0057816347
112	0xbe239df4	-0.15978223
113	0xbd2d9c7f	-0.042385574
114	0xbcbc0d30	-0.022955507
115	0xbe2aae8f	-0.16668151
116	0xbe05cc48	-0.13066208
117	0xbe5e1ad4	-0.21689922
118	0x3d322059	0.04348788
119	0x3d1383db	0.03601442
120	0x3daa818e	0.08325492
121	0x3e34e4d7	0.1766542
122	0xbcc4d0ed	-0.024025405
123	0xbe0e43ae	-0.13893005
124	0xbd8eb7f6	-0.069686815
125	0xbc7c5b53	-0.015402633
126	0xbe046855	-0.12930425
127	0xbd845493	-0.06461444
128	0x3e65c61d	0.22438855
129	0x3e2b471c	0.16726345
130	0x3e0cfdd3	0.13768701
131	0xbdbd28de	-0.092363104
132	0x3cb917fa	0.02259444
133	0x3d628640	0.055303812
134	0xbda7bfc7	-0.081908755
135	0x3d0a4020	0.03375256
136	0x3e4b0c62	0.19828942
137	0x3d5a8831	0.05335254
138	0x3da249c4	0.07924226
139	0xbdafff26	-0.085935876
140	0xbd9bce78	-0.0760774
141	0xbda112bf	-0.07864904
142	0x3d433c35	0.04766484
143	0xbdbd7080	-0.09249973
144	0x3e123a27	0.14279996
145	0x3d00ba3b	0.031427603
146	0x3dba7298	0.09103888
147	0xbdbd3e73	-0.09240427
148	0x3e173ab9	0.14768495
149	0x3e39515c	0.18097442
150	0xbd563342	-0.052294977
151	0x3dd729d8	0.10506028
152	0xbc3735e2	-0.01118228
153	0x3e14aea5	0.14519747
154	0x3d2c2051	0.042023007
155	0xbdd89a5d	-0.105763175
156	0x3dc062c8	0.09393841
157	0x3e1075a2	0.14107373
158	0x3e0ab491	0.13545443
159	0x3dc2fb00	0.09520531
160	0xbc5165cd	-0.012780619
161	0xbe0b167b	-0.13582794
162	0xbd3e83f8	-0.046512574
163	0x3c0b34fd	0.00849652
164	0x3e064eee	0.13116047
165	0x3d79c957	0.06098303
166	0xbdb28747	-0.08717208
167	0xbe088777	-0.13332926
168	0xbdfe5f39	-0.12420506
169	0x3d67d41d	0.05659877
170	0xbda1b6c5	-0.07896189
171	0xbdfbc245	-0.12292913
172	0x3e18a9da	0.14908543
173	0xbde12410	-0.109932065
174	0x3dcb23de	0.099189505
175	0x3dddb06f	0.10824668
176	0xbcdc347d	-0.026880497
177	0x3e2c2e33	0.16814499
178	0xbda9ecd8	-0.082971275
179	0x3d4d0464	0.050053015
180	0xbe5b0bac	-0.21391171
181	0xbe27f9f0	-0.16403937
182	0x3dc7636b	0.09735759
183	0x3cec3661	0.028834524
184	0x3d29d977	0.041467156
185	0xbd4d4a37	-0.050119605
186	0x3de5ff46	0.1123033
187	0xbd904fab	-0.070464455
188	0xbd4b64c5	-0.04965665
189	0x3e45ad97	0.193045
190	0xbc113cb1	-0.008864568
191	0x3e049b3f	0.12949847
192	0xbe14f0e0	-0.14545012
193	0x3dc12fb2	0.09432925
194	0xbdcf213f	-0.10113763
195	0x3c8a38fa	0.016872872
196	0x3e127249	0.14301409
197	0xbd683b33	-0.05669708
198	0xbe303507	-0.17207728
199	0xbd25e86c	-0.040504858
200	0xbd96f542	-0.07370998
201	0xbdc8366e	-0.09776007
202	0x3dbaa646	0.091137454
203	0x3b9b8d47	0.004747066
204	0xbd17a7b6	-0.037025176
205	0xbb04e9f2	-0.0020281044
206	0x3dadb5b8	0.08481926
207	0xbda397fb	-0.07987972
208	0x3e141533	0.14461212
209	0xbd7d7ec9	-0.06188849
210	0x3de3899d	0.11110232
211	0x3d33a6c3	0.04386021
212	0xbdefb59c	-0.11704561
213	0xbd010b64	-0.031505004
214	0x3c4631f2	0.012096869
215	0x3d13d7fb	0.036094647
216	0x3da83c6e	0.08214651
217	0x3e1661f3	0.14685802
218	0x3d9d8c22	0.07692744
219	0xbdf8c7be	-0.12147473
220	0xbc484145	-0.012222593
221	0x3db3035b	0.087408744
222	0x3d733184	0.059373394
223	0xbd1a61a6	-0.03769078
224	0xbe014baa	-0.1262652
225	0x3e095b27	0.13413678
226	0xbdb3b991	-0.08775628
227	0x3df1a387	0.117987685
228	0xbdfd21e0	-0.12359977
229	0xbe41b7ef	-0.18917821
230	0xbc9367c2	-0.017993812
231	0x3b3c8480	0.00287655
232	0xbc7e0330	-0.01550369
233	0xbdf2f726	-0.11863546
234	0x3e03fac2	0.12888625
235	0x3de4a303	0.111639045
236	0x3e1871ca	0.14887157
237	0xbdc56122	-0.09637667
238	0xbdb8793a	-0.09007497
239	0x3e6ac9ab	0.22928493
240	0xbc15016e	-0.009094579
241	0xbdbeb100	-0.09311104
242	0x3be1118d	0.0068685473
243	0x3d604277	0.054750886
244	0xbd3d6414	-0.04623802
245	0x3c9c467d	0.01907658
246	0x3c2607fe	0.010133741
247	0x3c478a4b	0.012178968
248	0x3d0c79f5	0.034295995
249	0x3c1c864d	0.009553504
250	0x3d8cb0d4	0.06869665
251	0xbc4f45f7	-0.012650958
252	0xbde5f48d	-0.11228285
253	0x3e17037a	0.1474742
254	0x3e11a58b	0.14223306
255	0x3be5331f	0.0069946195

map4.bias f4 [128]
0	0x3aae4aab	0.0013297399
1	0x3cea8137	0.028626068
2	0xbe2a4bf1	-0.16630532
3	0x3d993668	0.0748108
4	0xbda333ee	-0.07968889
5	0x3e11cf43	0.1423922
6	0xbe2fc7ef	-0.17166112
7	0x3e369f1b	0.17834131
8	0x3c9ecc7c	0.019384615
9	0x3de30622	0.11085154
10	0xbcf8eff0	-0.030387849
11	0xbd93a105	-0.072084464
12	0x3dc3feeb	0.09570106
13	0x3e0006ab	0.12502544
14	0x3e439608	0.19100201
15	0x3d79c0b3	0.060974788
16	0x3d59ced4	0.053175762
17	0x3df024ee	0.11725794
18	0x3dc96c8b	0.09835156
19	0x3dbfce1e	0.093654856
20	0xbde5e3d3	-0.11225095
21	0xbe108a8e	-0.14115354
22	0xbe185fd9	-0.14880313
23	0xbdad980b	-0.084762655
24	0xbd825460	-0.063637495
25	0x3ddcbc9f	0.10778164
26	0x3d708a5f	0.05872571
27	0x3d2a49a9	0.041574154
28	0xbd977fd4	-0.07397428
29	0xbcf2bd39	-0.029631244
30	0xbd75c19b	-0.05999909
31	0xbdbf8c33	-0.09352913
32	0x3e05c2cc	0.1306259
33	0xbde8f006	-0.11373906
34	0xbd6ebaf0	-0.058283746
35	0x3ddc40a4	0.10754517
36	0x3d2b65cf	0.04184514
37	0xbdcc7dd7	-0.099849395
38	0x3e2d02ad	0.16895552
39	0xbdda61ba	-0.10663171
40	0xbd865394	-0.0655891
41	0xbe0bc618	-0.13649786
42	0xbe0116ef	-0.12606405
43	0x3d8b4cbf	0.068017475
44	0xbd175ca8	-0.0369536
45	0xbdb05bae	-0.086112365
46	0xbddb9dae	-0.107234344
47	0x3e0f1239	0.13971795
48	0xbd97d66c	-0.074139446
49	0xbcb11d8f	-0.02162054
50	0x3d5907a1	0.05298579
51	0xbe26a3bc	-0.16273397
52	0x3db7cedb	0.089750014
53	0x3bcb4f8a	0.00620455
54	0xbc8e9142	-0.017403249
55	0x3d9897bf	0.07450818
56	0xbe38c2c4	-0.18043047
57	0xbdb19933	-0.086717986
58	0x3daf91e6	0.0857275
59	0x3e04060d	0.12892933
60	0xbe062ab3	-0.13102226
61	0x3e2bc249	0.16773333
62	0xbe0cf31b	-0.13764612
63	0x3e2d7a7b	0.16941254
64	0xbc8a2c1c	-0.016866736
65	0xbd1f5175	-0.038896043
66	0x3e1ae254	0.151254
67	0x3da89cb1	0.082330115
68	0xbda97fea	-0.08276351
69	0xbdbc6e17	-0.092006855
70	0x3de53eb9	0.11193604
71	0x3c63f6ae	0.0139137935
72	0xbcd346ae	-0.025790539
73	0x3d14298a	0.036172427
74	0xbe280e37	-0.16411673
75	0x3dc890b1	0.09793223
76	0xbd0e5b5a	-0.03475509
77	0x3c0a5f63	0.0084455935
78	0xbe1e6ead	-0.15471907
79	0x3e1a0c9b	0.15043871
80	0x3db15897	0.08659475
81	0x3e32b91c	0.17453426
82	0x3cbdcf40	0.023170114
83	0xbd64cf0c	-0.055861518
84	0x3dc16598	0.094432056
85	0x3dadbc1b	0.08483144
86	0x3d3252a8	0.04353586
87	0xbdeb617a	-0.114932016
88	0x3d2c0872	0.04200024
89	0xbdd27e51	-0.10277999
90	0xbd03e35e	-0.032199256
91	0xbe19b3de	-0.1501002
92	0x3e0ca546	0.13734922
93	0x3d1487ae	0.036262207
94	0xbcce4c87	-0.025182975
95	0x3c387a87	0.011259682
96	0x3d20afdd	0.039230216
97	0xbcf18f4a	-0.02948727
98	0xbc9c7552	-0.019098911
99	0xbdf1089e	-0.11769222
100	0x3d6660f1	0.056244794
101	0xbdf0ec81	-0.117638595
102	0xbd2abcfb	-0.041684132
103	0xbe0d0980	-0.13773155
104	0x3e0819fa	0.1329116
105	0xbdc03c05	-0.09386448
106	0x3d458bd0	0.04822904
107	0x3da0a2b0	0.0784353
108	0x3c9eef25	0.019401142
109	0xbd9aa553	-0.07551064
110	0x3e32fbbd	0.17478843
111	0x3e2cf9be	0.16892144
112	0x3e12b369	0.14326252
113	0x3e874744	0.2642156
114	0xbe06bb84	-0.13157469
115	0xbe0c1414	-0.13679534
116	0xbca71733	-0.020396804
117	0xbc5ab177	-0.013347975
118	0xbdb25e0d	-0.08709345
119	0x3e44a4ee	0.1920354
120	0x3e65c725	0.22439249
121	0x3d7b1bf3	0.06130595
122	0xbd31426f	-0.043276247
123	0xbded5a28	-0.115894616
124	0xbdb4c53b	-0.08826681
125	0x3c6caeda	0.014445985
126	0x3e32e9e0	0.17472029
127	0xbd37ff0b	-0.044920962
